task3_MNIST/cnn_model.pth (torch, 181332 bytes, 10 tensors)

conv1.weight f4 [6, 1, 5, 5]
0	0xbe057eff	-0.13036726
1	0xbe7f8a62	-0.24955133
2	0xbe9a3080	-0.30115128
3	0xbebc31c3	-0.36756715
4	0xbdf2eaaf	-0.118611686
5	0xbe24e9b9	-0.16104783
6	0xbe40e224	-0.18836266
7	0xbe876273	-0.26442298
8	0xbd361a0b	-0.04445843
9	0x3e865ceb	0.26242766
10	0xbe93f847	-0.28900358
11	0xbe8d8aab	-0.27644858
12	0xbd261c0a	-0.040554084
13	0x3bed39e6	0.007239568
14	0x3ed014fc	0.4064101
15	0xbecbae9b	-0.3978165
16	0xbdcb2113	-0.09918418
17	0x3c938d2a	0.018011648
18	0x3e91c2cc	0.2846893
19	0x3ed837df	0.42230126
20	0xbe5cabd3	-0.2154992
21	0xbe3dd9f2	-0.18540171
22	0x3e5fc2e0	0.21851683
23	0x3edca659	0.43095663
24	0x3dc70976	0.097186014
25	0x3e1a402d	0.15063544
26	0x3e71e517	0.23622547
27	0x3ec6136d	0.38686696
28	0x3deaa701	0.11457635
29	0x3d4fd549	0.050740514
30	0xbe4e21e0	-0.2013011
31	0xbda51628	-0.080608666
32	0x3e653c6a	0.22386327
33	0x3f10fc1d	0.56634694
34	0x3e6f1abf	0.23350047
35	0xbea68241	-0.3252125
36	0xbe8037d3	-0.2504259
37	0xbe3c4bf5	-0.1838835
38	0x3eb63477	0.35586902
39	0x3e965030	0.29358053
40	0xbeb774a2	-0.3583117
41	0xbe85f714	-0.26165068
42	0xbeb5037a	-0.35354215
43	0x3eb7f9fe	0.35932916
44	0x3eceb125	0.40369526
45	0xbe8f2642	-0.27958876
46	0xbdc4511d	-0.09585784
47	0xbe6e8ee7	-0.232967
48	0xbd578860	-0.05262029
49	0x3eca81d0	0.39552164
50	0xbd9f2701	-0.07771111
51	0xbed19365	-0.40932766
52	0xbe9354c6	-0.28775615
53	0x3dc24b09	0.09486968
54	0x3e6b96fb	0.23006813
55	0xbe9b7a54	-0.30366766
56	0xbdc914ba	-0.098184064
57	0xbd47c0a7	-0.048767712
58	0x3d9beafb	0.07613178
59	0x3d11783a	0.035515048
60	0x3ed5831f	0.417016
61	0x3ec05ffb	0.37573227
62	0x3eea4bb8	0.45760894
63	0x3eecf291	0.46278813
64	0x3cf04e86	0.029334318
65	0xbc9eefa4	-0.019401379
66	0x3e152052	0.1456311
67	0x3e81eb60	0.2537489
68	0xbe370b7c	-0.17875475
69	0xbe9ae468	-0.30252385
70	0xbe747141	-0.23871328
71	0x3ca4d8d1	0.020122917
72	0xbe55acd3	-0.20866708
73	0xbeddb717	-0.4330375
74	0xbe129953	-0.14316301
75	0xbe8289e3	-0.25495824
76	0xbd8d7aee	-0.069082126
77	0x3e3bd529	0.18343033
78	0x3d4375b9	0.04771969
79	0xbc9cf78e	-0.019161012
80	0xbe830223	-0.25587568
81	0x3e3cb86c	0.18429726
82	0x3e8a86ce	0.27055973
83	0x3d303258	0.04301676
84	0xbe527b0d	-0.20554753
85	0xbe6f198c	-0.23349589
86	0x3e274558	0.16335046
87	0x3ebae8ae	0.36505646
88	0xbe599996	-0.21249995
89	0xbe46d411	-0.19416834
90	0x3e5f1fd4	0.21789485
91	0x3e3a5401	0.18196107
92	0x3d30e5ab	0.04318778
93	0xbdb064a8	-0.08612949
94	0xbd6717a7	-0.05641904
95	0x3e8cb236	0.27479714
96	0x3de1de9e	0.11028789
97	0x3e826e62	0.2547484
98	0x3d6eb157	0.058274593
99	0xbeab6e7a	-0.33482724
100	0x3eb3b079	0.35095575
101	0x3ec010f2	0.37512928
102	0x3e4ae914	0.19815475
103	0x3ed0aa42	0.40754896
104	0x3e318acd	0.17338105
105	0xbcf18132	-0.02948055
106	0xbe8c947e	-0.2745704
107	0xbe01d919	-0.12680472
108	0xbe840411	-0.25784352
109	0xbe4e5053	-0.20147829
110	0xbe4ef6ae	-0.20211288
111	0xbd8640ec	-0.065553516
112	0xbe89ce36	-0.2691514
113	0xbeb53fdf	-0.35400292
114	0xbeaefb58	-0.34176135
115	0xbd6a21d3	-0.057161164
116	0x3e292b97	0.16520534
117	0xbe5a4536	-0.21315464
118	0xbe8a615c	-0.27027404
119	0xbe9d9ce8	-0.30783772
120	0xbe4e992f	-0.20175622
121	0xbe03009f	-0.12793206
122	0x3eebc7d1	0.46050885
123	0x3ef35df2	0.47532612
124	0x3ed19659	0.4093502
125	0x3e752989	0.23941626
126	0xbd80c996	-0.062884495
127	0xbef408cb	-0.47662959
128	0xbe9671f5	-0.29383817
129	0xbcf92c60	-0.030416667
130	0x3e485d59	0.1956686
131	0x3e5a01a6	0.21289691
132	0xbeb72f73	-0.35778388
133	0xbe933d6a	-0.28757793
134	0x3d292257	0.041292515
135	0x3e3bcefc	0.18340677
136	0x3f0d04b5	0.5508531
137	0x3e98f243	0.2987233
138	0x3e49da83	0.19712262
139	0xbc857e89	-0.016295688
140	0x3e7c201c	0.24621624
141	0x3f1eb414	0.6199353
142	0x3ee7da32	0.45283657
143	0x3e6babfa	0.23014823
144	0xbe3cb476	-0.18428215
145	0xbd8503be	-0.064948544
146	0xbe19733d	-0.14985366
147	0xbda20604	-0.07911304
148	0x3e005924	0.12534004
149	0x3d1733c8	0.036914617

conv1.bias f4 [6]
0	0x3de5a1e1	0.112125166
1	0xbe73a6bd	-0.23794074
2	0xbdccf810	-0.10008252
3	0xbdb9d218	-0.09073275
4	0x3e76492a	0.24051347
5	0x3e3d775f	0.18502568

conv2.weight f4 [16, 6, 5, 5]
0	0xba6921dd	-0.00088932907
1	0x3d9a0f89	0.07522494
2	0x3dc73d19	0.0972845
3	0x3da12ce1	0.07869888
4	0xbd30d80f	-0.0431748
5	0x3cee9c07	0.029127134
6	0x3dd0c59f	0.10193943
7	0x3e1a0933	0.15042572
8	0xbd853d16	-0.06505792
9	0xbd7307e6	-0.059333704
10	0x3e0a8962	0.1352897
11	0x3e5eb43e	0.21748444
12	0xbc062fc5	-0.0081901
13	0xbd81a907	-0.063310675
14	0xbdb09296	-0.08621709
15	0x3d58e2b4	0.052950576
16	0x3db88508	0.09009749
17	0x3d1b868c	0.03797011
18	0x3d0be6d0	0.034155667
19	0xbc35e06b	-0.011100869
20	0x3d8d082e	0.06886326
21	0x3d6f59fe	0.058435433
22	0xbe22ec21	-0.15910389
23	0xbde316fc	-0.11088368
24	0x3d1838d9	0.03716359
25	0xbe5b7bbc	-0.2143392
26	0xbd2899f8	-0.04116246
27	0x3c46cd52	0.012133913
28	0xbe47afa4	-0.19500595
29	0xbdc5df82	-0.09661771
30	0xbdaf657c	-0.085642785
31	0x3e46f10f	0.19427894
32	0xbc020249	-0.007935115
33	0xbe8c7704	-0.27434552
34	0xbde4665a	-0.111523345
35	0x3da5587a	0.08073516
36	0x3e07a0a4	0.13244873
37	0xbe27977f	-0.16366385
38	0xbe21f148	-0.15814698
39	0x3d68372a	0.056693234
40	0x3e75c6f6	0.24001679
41	0x3def08bc	0.11671588
42	0xbe6a5daf	-0.228873
43	0xbe290de0	-0.16509199
44	0x3e072764	0.1319862
45	0x3e23e98a	0.16007057
46	0xbdad5578	-0.084635675
47	0xbe0c044c	-0.13673514
48	0xbdba62cc	-0.09100875
49	0x3d9d57be	0.07682751
50	0xbd392f8c	-0.04521136
51	0xbdc74435	-0.09729806
52	0xbdd677de	-0.104720816
53	0xbcee0fd7	-0.029060287
54	0x3d8c4a46	0.06850104
55	0xbdc538c4	-0.09629968
56	0xbc70a3b7	-0.01468747
57	0x3dee3675	0.116314806
58	0x3c375942	0.011190714
59	0x3dcca39c	0.099921435
60	0xbdf85081	-0.1212473
61	0xbd9911b1	-0.074740775
62	0x3dd3b79d	0.10337756
63	0x3dbd586f	0.09245383
64	0xbc193c8c	-0.009352814
65	0xbe4aa585	-0.19789703
66	0x3d469b71	0.048488084
67	0xbd1c16ff	-0.03810787
68	0xbd46158f	-0.048360404
69	0xbd3c8451	-0.046024624
70	0xbc21d642	-0.009877743
71	0xbd1da315	-0.038485605
72	0xbe044523	-0.12916999
73	0xbe14f915	-0.14548142
74	0xbdbe778f	-0.09300148
75	0xbdc83bb0	-0.097770095
76	0xbde04046	-0.10949759
77	0xbd82703a	-0.06369062
78	0x3caf2fa5	0.021385023
79	0xbd494696	-0.04913958
80	0xbda2e3d2	-0.079536095
81	0xbd80f9a9	-0.06297619
82	0xbd16fd2f	-0.03686255
83	0x3d5151ec	0.051103517
84	0xbbb1ecad	-0.0054298253
85	0xbe100fb9	-0.14068498
86	0x3cab8119	0.020935582
87	0x3e2356eb	0.15951125
88	0x3d2f19ba	0.042749144
89	0xbda329a2	-0.07966925
90	0xbd93607a	-0.07196136
91	0x3e0c4d87	0.1370145
92	0x3e18c32c	0.14918202
93	0xbdee90d9	-0.11648721
94	0xbe23ed80	-0.16008568
95	0x3de5c2cb	0.112187944
96	0x3e5192e5	0.20466192
97	0x3d916bb8	0.07100624
98	0xbd9442d5	-0.0723931
99	0xbcb3d623	-0.021952694
100	0x3d82caff	0.06386375
101	0xbd97be24	-0.07409313
102	0xbd4670fa	-0.048447587
103	0xbd823d0f	-0.06359302
104	0x3d789f3e	0.06069874
105	0xbdcb6aed	-0.09932504
106	0xbe593275	-0.21210654
107	0xbe05829b	-0.13038103
108	0x3d2a1a3f	0.041528936
109	0x3b49cd1a	0.0030792416
110	0xbe022de7	-0.12712823
111	0xbe2da78e	-0.16958448
112	0xbd09c274	-0.03363271
113	0x3d561679	0.052267525
114	0x3d9b09a5	0.07570199
115	0xbe10b571	-0.14131714
116	0xbdba84e1	-0.09107376
117	0xbd0bca1b	-0.03412829
118	0x3d658652	0.0560363
119	0xbc8b0531	-0.016970249
120	0xbe1293ee	-0.14314243
121	0x3be15e26	0.0068776784
122	0xbcc186bf	-0.023623822
123	0xbd524285	-0.05133297
124	0x3ca9b4de	0.020716127
125	0xbed4250e	-0.4143452
126	0xbebb8108	-0.3662188
127	0xbe3b9d68	-0.18321764
128	0x3cea8ee1	0.028632583
129	0xbd19cdae	-0.037549667
130	0xbe4518be	-0.1924772
131	0xbe155f67	-0.14587174
132	0xbdd84955	-0.10560862
133	0x3e09976b	0.13436668
134	0xbd62dc90	-0.055386126
135	0xbd33c03b	-0.043884497
136	0xbe00e657	-0.12587868
137	0x3dc7e682	0.09760763
138	0x3e4151c5	0.18878849
139	0xbdbecaa1	-0.09315992
140	0xbdaa5f8d	-0.08319006
141	0xbd90e4e8	-0.070749104
142	0x3e564a98	0.20926893
143	0xbd1f9b34	-0.038966373
144	0xbe6329d7	-0.2218393
145	0xbd998d20	-0.074976206
146	0xbd952668	-0.07282716
147	0xbd183172	-0.03715653
148	0xbe66f946	-0.22556028
149	0xbe81f6e6	-0.2538368
150	0x3cf61076	0.030037146
151	0x3da1a192	0.07892145
152	0xbc7afabb	-0.015318568
153	0xbdc8fcca	-0.09813841
154	0xbda2b62e	-0.07944904
155	0x3dc68774	0.096938044
156	0xbde383b4	-0.11109105
157	0xbe285506	-0.16438684
158	0xbe40d34d	-0.18830605
159	0xbdefe0f2	-0.11712827
160	0x3d3d466e	0.046209745
161	0xbe505dc4	-0.20348269
162	0xbe245d72	-0.16051272
163	0xbe520afb	-0.20512001
164	0xbd2c33f9	-0.042041752
165	0xbce12714	-0.027484454
166	0xbdab31aa	-0.08359082
167	0xbd9f3dc9	-0.077754565
168	0x3b91c40f	0.004448421
169	0xbc2bf061	-0.0104943225
170	0xbd4f9de3	-0.050687682
171	0x3d7a5243	0.061113607
172	0xbd14f022	-0.03636182
173	0xbd789fef	-0.0606994
174	0xbcc2a16f	-0.023758618
175	0xbe075504	-0.13216025
176	0xbe095c20	-0.13414049
177	0xbe1e32f8	-0.1544913
178	0xbe1d6f59	-0.15374507
179	0xbc82e5ff	-0.015978811
180	0xbe54aa14	-0.20768005
181	0xbe39b2b9	-0.18134584
182	0xbc9edc28	-0.019392088
183	0x3b9ee902	0.004849554
184	0xbd6f9f59	-0.058501575
185	0xbdda0eb4	-0.10647336
186	0xbc5a81f1	-0.0133366445
187	0x3e7931bf	0.24335383
188	0x3da4fa61	0.080555685
189	0xbde76247	-0.11298042
190	0x3e01f975	0.12692817
191	0x3d387429	0.045032654
192	0x3d9ec41c	0.07752249
193	0xbcfe51cd	-0.031044865
194	0xbda51e62	-0.08062436
195	0xbd80dec8	-0.06292492
196	0xbd4b0977	-0.049569573
197	0xbd86c9e0	-0.06581473
198	0xbe05728d	-0.13031979
199	0xbd8cf511	-0.0688268
200	0xbd8b262c	-0.0679439
201	0xbcda6ad2	-0.026662264
202	0x3deb0f92	0.11477579
203	0x3e396222	0.18103841
204	0x3d0722d4	0.0329922
205	0x3cea0bdf	0.028570114
206	0x3d8f1033	0.06985512
207	0xbd086296	-0.033297144
208	0x3c7b4db7	0.015338353
209	0xbcc71f0d	-0.024306798
210	0x3d8ad6ba	0.06779237
211	0x3ded0680	0.115735054
212	0xbc4a4ef9	-0.01234793
213	0x3cd65a5a	0.02616613
214	0xbdf46a7f	-0.11934375
215	0xbcf5683f	-0.029956935
216	0xbd01f918	-0.031731695
217	0x3d015e41	0.03158403
218	0xba0302ec	-0.0004997689
219	0xbd9df4c7	-0.07712703
220	0x3d15c9b0	0.036569297
221	0x3e542583	0.20717435
222	0x3dbe2ea6	0.09286241
223	0x3d366730	0.044532
224	0xbd5261b1	-0.051362697
225	0xbd9dc950	-0.07704413
226	0xbe10a95d	-0.14127107
227	0x3bf4f69f	0.0074756886
228	0xbcd59fcf	-0.02607718
229	0x3d90bddf	0.07067465
230	0xbdc4abaf	-0.096030585
231	0xbd09a8e0	-0.033608317
232	0xbd017b05	-0.03161146
233	0xbdb99203	-0.09061053
234	0xbe0d1793	-0.13778524
235	0xbbe179ab	-0.006880959
236	0xbd91bf83	-0.07116606
237	0xbd4ef459	-0.050525997
238	0x3ca02db0	0.019553035
239	0xbd5d8a8f	-0.054087218
240	0xbd8b5102	-0.068025604
241	0xbcfe3fc1	-0.03103626
242	0x3da48bb6	0.0803446
243	0x3e20d791	0.15707232
244	0xbccbdab6	-0.024884563
245	0x3d5906ed	0.05298512
246	0x3b96ca1d	0.0046017305
247	0x3d899f36	0.0671982
248	0x3d100d1d	0.035168756
249	0x3ca5650c	0.020189784
250	0x3b809a6b	0.003924658
251	0x3bf68380	0.0075230002
252	0x3dd77975	0.10521213
253	0x3d9a1c44	0.075249225
254	0x3d624806	0.05524447
255	0xbcea9b02	-0.028638367

conv2.bias f4 [16]
0	0xbd3dcc49	-0.0463374
1	0x3c6e6d15	0.014552374
2	0x3d0d5c9c	0.034512147
3	0xbdc386e2	-0.09547211
4	0x3c571d81	0.013129593
5	0xbd877961	-0.06614948
6	0xbcf0e53c	-0.029406182
7	0xbd21f59c	-0.039540872
8	0xbd6816a8	-0.05666223
9	0x3c05d4e7	0.008168436
10	0xbd2839d1	-0.041070763
11	0x3cb4d5dd	0.022074634
12	0x3d587295	0.05284365
13	0x3d68e147	0.056855466
14	0xbd2df6be	-0.04247164
15	0xbd19f917	-0.037591066

fc1.weight f4 [120, 256]
0	0xbd7f315b	-0.06230293
1	0xbdc7fb2c	-0.09764704
2	0xbd6a5b14	-0.057215765
3	0x3d70ba9f	0.058771726
4	0x3d07a661	0.033117656
5	0xbcb3a556	-0.021929424
6	0xbd25bfe9	-0.040466223
7	0xbcbf7b6b	-0.02337428
8	0x3d99ef14	0.07516304
9	0xbc65b475	-0.014020075
10	0xbd2eb2cc	-0.042650983
11	0x3ceea4d6	0.029131334
12	0x3d651de0	0.055936694
13	0xbca5370b	-0.020167848
14	0xbd3417ee	-0.043968134
15	0xbd4618be	-0.04836344
16	0xbce158f3	-0.027508235
17	0xbce6da2c	-0.028180204
18	0xbce629f7	-0.028096182
19	0x3cef37ec	0.02920147
20	0x3ccbc4c3	0.024874097
21	0xbbdbc2ff	-0.006706595
22	0xbce4e9c6	-0.027943503
23	0x3d697054	0.05699189
24	0xbd2f7da1	-0.04284442
25	0x3d00a704	0.03140928
26	0x3c89250a	0.016741294
27	0x3d3320b5	0.043732364
28	0x3d7983d5	0.06091674
29	0x3db77752	0.089583054
30	0xbd33f13a	-0.043931223
31	0x3bf733b6	0.007544006
32	0x3da0dde4	0.07854822
33	0xbd0860a4	-0.03329529
34	0xbd74d6e7	-0.05977526
35	0x3ab3ddd7	0.001372273
36	0x3dbdb55a	0.09263106
37	0xbda7c792	-0.08192362
38	0x3c681399	0.014164829
39	0xbd582fa1	-0.052779797
40	0xbb817392	-0.0039505446
41	0x3d58feb8	0.052977294
42	0x3bd42050	0.0064735785
43	0x3de5a951	0.11213935
44	0xbaf0aee3	-0.0018362667
45	0x3c92f379	0.017938362
46	0x3d58f216	0.052965246
47	0x3dfb407e	0.1226816
48	0x3d885cf6	0.06658356
49	0x3c11c466	0.008896923
50	0xbd33ac2c	-0.043865368
51	0x3cc34ac5	0.023839364
52	0x3d07b6f4	0.033133462
53	0x3d9c643b	0.07636305
54	0x3c9ed9a4	0.019390889
55	0xbd048972	-0.03235764
56	0x3d0f04eb	0.0349168
57	0xbd45eec1	-0.048323397
58	0x3db96a33	0.09053459
59	0x3d0fd988	0.035119563
60	0xbd19bba5	-0.037532467
61	0xbd75ab83	-0.05997802
62	0x3d6baffd	0.057540882
63	0x3d87f3da	0.06638308
64	0x3c3827af	0.01123993
65	0x3cd57396	0.026056092
66	0x3c2cbaf4	0.01054262
67	0x3d4f9207	0.050676372
68	0xbd992407	-0.07477575
69	0x3da5014e	0.080568895
70	0x3cc04120	0.023468554
71	0xbe031df9	-0.12804402
72	0xbdb9d74b	-0.09074267
73	0x3dace3e6	0.08441906
74	0x3c160f61	0.00915894
75	0x3df4eaba	0.11958833
76	0x3ce4b2ca	0.027917285
77	0xbcdcb300	-0.026940823
78	0x3d65aa0c	0.056070372
79	0x3df60f44	0.120146304
80	0xbd8bf9c0	-0.068347454
81	0x3bf8a5b7	0.007588114
82	0xbd66a15b	-0.056306224
83	0xbd62cfbb	-0.05537389
84	0xbd6a8203	-0.057252895
85	0xbd6afe1c	-0.057371244
86	0x3cd005fc	0.025393479
87	0x3d4027cb	0.04691295
88	0xbbe70d48	-0.007051144
89	0x3cf5e217	0.030015035
90	0x3dcf14e2	0.10111405
91	0xbd648b05	-0.05579664
92	0x3dab816f	0.08374297
93	0x3d657472	0.056019254
94	0x3dd4696b	0.103716694
95	0x3d076e00	0.03306389
96	0x3d81fd55	0.063471474
97	0x3de1206a	0.109925106
98	0x3d805ef6	0.06268112
99	0xbd9217b4	-0.07133427
100	0xbd7120e5	-0.05886926
101	0xbd07c053	-0.0331424
102	0xbdee9676	-0.11649792
103	0xbd145103	-0.03621007
104	0xbd29a93b	-0.041421156
105	0x3cdac3c5	0.026704678
106	0x3d5e9671	0.05434269
107	0x3d8bdcf0	0.0682925
108	0x3d3eb02b	0.046554726
109	0xbd977e61	-0.07397152
110	0x3c6cc23a	0.014450604
111	0x3e0e9c14	0.13926727
112	0xbd726697	-0.05917987
113	0x3c3f03d5	0.0116586285
114	0xbd20e1ac	-0.039277717
115	0xbd1efb62	-0.038813956
116	0xba6004e5	-0.0008545651
117	0xbd156fdc	-0.03648363
118	0xbcf33f0d	-0.02969315
119	0x3ca7640b	0.020433446
120	0x3dae5476	0.085122034
121	0xbd8601c1	-0.06543303
122	0x3d330ef0	0.043715417
123	0x3ca1dbe7	0.019758178
124	0x3d384bfb	0.044994336
125	0xbba3dfa3	-0.005001025
126	0x3bba9646	0.0056941835
127	0x3d7fa7e5	0.062415976
128	0x3d1b18df	0.037865516
129	0xbdaf1e76	-0.08550732
130	0xbd413ba2	-0.04717601
131	0xbcb95226	-0.02262218
132	0x3db18418	0.08667773
133	0xbbc5e8da	-0.006039721
134	0xbd3fe3ab	-0.04684798
135	0xbcf003c0	-0.029298663
136	0x3c781e7a	0.015143985
137	0xbdad508e	-0.0846263
138	0xbcba9b7d	-0.02277922
139	0xbd1e3776	-0.03862711
140	0x3d38e0c7	0.04513624
141	0xbd089506	-0.033345245
142	0x3b8dd611	0.004328497
143	0x3d53a53b	0.051671248
144	0x3cff39b8	0.031155452
145	0x3d0c5ab1	0.034266178
146	0xbc0ad885	-0.008474474
147	0x3c913ffc	0.017730705
148	0xbd502fd6	-0.05082687
149	0xbc8c01cf	-0.017090706
150	0xbd1870ee	-0.037217073
151	0x3c4f0bf0	0.012637123
152	0xbce37522	-0.027765814
153	0xbd51e032	-0.0512392
154	0x3d4e4c87	0.05036595
155	0xbd2a6768	-0.041602522
156	0xbc5df42c	-0.013546985
157	0x3dcc290a	0.09968765
158	0xbcbccae1	-0.023045959
159	0x3c648fcf	0.013950302
160	0x3d7aa8fb	0.06119631
161	0x3b2fc21f	0.0026818586
162	0xbc7eeca4	-0.015559349
163	0xbbfad031	-0.007654213
164	0xbcf093e5	-0.029367397
165	0x3c13d52c	0.009022992
166	0xbbcb122d	-0.006197235
167	0xbd9c2605	-0.07624439
168	0xbc49945d	-0.012303439
169	0x3c326690	0.010888711
170	0xbdd16c26	-0.10225706
171	0x3d0b4a90	0.034006655
172	0xba73ccc0	-0.00093002245
173	0xbd27e947	-0.040993955
174	0xbcf91114	-0.030403651
175	0xbcf91826	-0.030407023
176	0x3b8ef329	0.004362483
177	0xbd786f26	-0.060652874
178	0xbc8446d4	-0.016147055
179	0xbd87bd16	-0.06627862
180	0xbbe2cfbe	-0.0069217375
181	0x3a2a7004	0.0006501677
182	0xbced5115	-0.028969327
183	0x3d9e1a4d	0.0771986
184	0xbbeebdbb	-0.007285801
185	0xbc974090	-0.018463403
186	0x3cdbd1c0	0.026833415
187	0x3d7a4d29	0.061108742
188	0xbd1f6e96	-0.038923822
189	0x3c101f73	0.008796561
190	0x3c82d978	0.015972838
191	0xbd48c2dc	-0.049013957
192	0x3d4b5481	0.049641136
193	0xbd44167d	-0.04787301
194	0x3d0939ed	0.033502508
195	0x3d8a60e6	0.06756763
196	0xbd30c6c8	-0.043158323
197	0xbd39760c	-0.045278594
198	0x3ce471dd	0.027886325
199	0x3d803d0a	0.06261642
200	0xbb1125a3	-0.0022147677
201	0x3b34732e	0.0027534473
202	0xbac8747d	-0.0015293505
203	0x3cd15b29	0.025556164
204	0x3d2f7938	0.042840213
205	0x3d29858e	0.041387133
206	0x3d0883d8	0.03332886
207	0xbd83b342	-0.06430675
208	0xbb0cbb37	-0.0021473893
209	0xba17cc6b	-0.00057906535
210	0xbd93dbf7	-0.07219689
211	0xbc3f1a91	-0.011664049
212	0xbd0dfc98	-0.03466472
213	0xbb8ac933	-0.0042354106
214	0x3bb7fd83	0.0056149377
215	0x3d247553	0.04015095
216	0x3b275478	0.0025532525
217	0xbd24ffb2	-0.040282913
218	0xbc56fea6	-0.013122236
219	0x3d6a7afa	0.057246186
220	0xbcf8cdf5	-0.030371645
221	0x3d8ddffe	0.06927489
222	0x3d5c5197	0.053788748
223	0x3d45e847	0.04831722
224	0xbbdc45ab	-0.0067221723
225	0x3be1864f	0.006882466
226	0x3c92deb8	0.017928466
227	0x3d0d24f9	0.034459088
228	0xbdbf3528	-0.093363106
229	0x3c085a8b	0.008322368
230	0xbd17b2ad	-0.037035633
231	0x3d0bcfec	0.034133837
232	0x3d90d52d	0.0707191
233	0xbcc6706a	-0.024223525
234	0x3c231cac	0.009955566
235	0x3d15b951	0.036553685
236	0x3cd685b0	0.026186794
237	0x3d567f1a	0.052367307
238	0xbd442e27	-0.047895577
239	0xbd911bd2	-0.070853844
240	0xbd313623	-0.04326452
241	0xbb5a2f93	-0.0033292517
242	0x3d9fe716	0.07807748
243	0x3d94b809	0.072616644
244	0xbdb9d353	-0.0907351
245	0xbe003c36	-0.12522969
246	0xbd6528ec	-0.05594723
247	0x3cb93695	0.022609035
248	0xbdc8ff0d	-0.09814272
249	0xbdc20a82	-0.094746605
250	0xbcf5c758	-0.030002281
251	0xbbea788f	-0.007155485
252	0x3d04bf58	0.032409042
253	0x3d8c4c67	0.0685051
254	0x3d4f04c4	0.050541654
255	0xbd0b43de	-0.03400027

fc1.bias f4 [120]
0	0xbd43d18a	-0.047807254
1	0xbc18b276	-0.009319892
2	0xbcc893ba	-0.024484504
3	0x3d5c990c	0.053856894
4	0xbd2532c6	-0.040331624
5	0xbd751dff	-0.05984306
6	0xbce0db14	-0.027448215
7	0x3d6893e2	0.056781657
8	0xbd1b0cc3	-0.037853967
9	0xbd4b1553	-0.049580883
10	0x398abdc0	0.00026462786
11	0xbae45f49	-0.0017423417
12	0xbd78e64b	-0.0607665
13	0x3d92105f	0.07132029
14	0xbcad2eb9	-0.021140443
15	0x3d655db2	0.055997558
16	0xbb8ab9b3	-0.004233563
17	0xbd56fd9f	-0.052487966
18	0xbd358a5d	-0.044321407
19	0xbd3c6f4a	-0.04600457
20	0x3d906c20	0.07051873
21	0xbd476a86	-0.048685573
22	0x3ccba6f8	0.02485989
23	0xbcb84186	-0.022492182
24	0xbd2e4f49	-0.04255608
25	0x3d20206b	0.039093416
26	0x3cb0c9a6	0.021580528
27	0x3d41851b	0.04724608
28	0xbca34cab	-0.01993402
29	0x3d940758	0.07227963
30	0x3d78c5e7	0.06073561
31	0xbd4b1166	-0.04957714
32	0x3c82db73	0.015973782
33	0x3d2245a9	0.039617214
34	0x3d5f4e3a	0.054517962
35	0x3d53e71d	0.05173408
36	0xbc63ad08	-0.013896234
37	0xba9393a8	-0.0011259215
38	0x3bc95822	0.0061445395
39	0x3c3c51f4	0.0114941485
40	0xbc886517	-0.016649766
41	0xbd8bf5fe	-0.06834029
42	0xbd12aae4	-0.035807505
43	0x3d544685	0.051825065
44	0x3d4fdd83	0.05074836
45	0xbc23e1f6	-0.010002604
46	0xbce1d4e3	-0.027567333
47	0x3d76ed51	0.060284916
48	0x3cdb1e20	0.026747763
49	0xbd5b3ed7	-0.053526726
50	0x3cc6445d	0.02420252
51	0x3c86702b	0.016410908
52	0x3d80d4a7	0.0629056
53	0x3b01a59e	0.0019782553
54	0xbd8de719	-0.06928844
55	0xbc447d44	-0.011992756
56	0xbd67161d	-0.056417573
57	0xbc87736d	-0.016534531
58	0x3d174713	0.036933016
59	0x3d3ca38c	0.046054408
60	0xbceaba8c	-0.028653406
61	0x3cc7e9a1	0.024403395
62	0xbb6dca69	-0.0036283976
63	0x3c5aa356	0.013344606
64	0x3d75b95e	0.059991233
65	0x3d58e7eb	0.05295555
66	0xbd1cda85	-0.038294334
67	0xbc4b1381	-0.012394787
68	0x3cfe7e97	0.031066222
69	0x3d885adc	0.06657955
70	0x3d7b3918	0.061333746
71	0xbd355091	-0.044266287
72	0xbc6c7281	-0.014431597
73	0xbcf752f1	-0.030190917
74	0xbd133b75	-0.035945375
75	0xbb9206a3	-0.0044563576
76	0x3ccf3ecb	0.025298497
77	0xbab61c28	-0.0013893889
78	0x3cace46d	0.021105016
79	0xba830dd7	-0.0009998631
80	0xbb856735	-0.004071141
81	0x3ce1e11e	0.027573165
82	0x3d179324	0.03700556
83	0xbd35c8eb	-0.044381063
84	0xbac33c68	-0.0014895322
85	0x3d93e80f	0.07221996
86	0x3c2526b2	0.010080026
87	0xbc89c5f3	-0.016818022
88	0xbcc68d62	-0.024237338
89	0xbd20f375	-0.03929468
90	0x3cb5ff6e	0.022216525
91	0xbd2711b2	-0.04078836
92	0x3b86a42c	0.0041089263
93	0x3d2f681f	0.042823907
94	0x3d62fef5	0.055418927
95	0xbce43c2c	-0.027860723
96	0x3d075aae	0.033045463
97	0x3d03f7d2	0.03221876
98	0xbd99162c	-0.07474932
99	0x3d0e74af	0.034779247
100	0xbd32175a	-0.0434793
101	0x3d5e80a6	0.054321907
102	0xbd2a07c8	-0.041511327
103	0xbc880944	-0.01660598
104	0x3c4cbfe0	0.012496918
105	0x3d862e66	0.065518185
106	0xbc8dcf95	-0.017310897
107	0x3c7e43d5	0.015519102
108	0x3b359aa5	0.0027710584
109	0xbb913ad5	-0.004432062
110	0xbd84332f	-0.06455075
111	0xbbd539cb	-0.0065071336
112	0x3c646f03	0.013942483
113	0x3c700968	0.01465068
114	0x3cfc665f	0.030810533
115	0xbb7c924c	-0.0038539348
116	0x3c858e51	0.016303213
117	0xbcc3ba2e	-0.023892488
118	0xbd405b12	-0.04696185
119	0x3cffac84	0.031210192

fc2.weight f4 [84, 120]
0	0x3cb498e0	0.022045553
1	0x3c86a17d	0.016434425
2	0x3c74da5d	0.01494464
3	0xbd458200	-0.04821968
4	0xbdd65d06	-0.104669616
5	0x3d9233fc	0.071388215
6	0x3db10709	0.0864392
7	0xbd34f50e	-0.044179015
8	0x3ce0f9e6	0.02746291
9	0xbd98cedd	-0.07461331
10	0xbd0e2d03	-0.034710895
11	0xbe583589	-0.21114172
12	0xbd4c9d71	-0.049954835
13	0x3bc374ab	0.0059648356
14	0x3d5c94d5	0.053852875
15	0x3cf4e27f	0.029893158
16	0xbd737226	-0.059435032
17	0x3ce81cc6	0.028334033
18	0x3d4c64d6	0.049900852
19	0xbc5dea7a	-0.013544673
20	0xbdd202d6	-0.10254447
21	0x3db57b8f	0.088614576
22	0xbc875807	-0.016521467
23	0x3d8f561f	0.06998848
24	0xbd3acd6a	-0.045606054
25	0xbdb9cc9b	-0.090722285
26	0x3da8fc4b	0.08251246
27	0xbd02a16e	-0.031892233
28	0x3c9251b7	0.01786123
29	0xbd9d8942	-0.076921955
30	0x3dadd9ba	0.08488794
31	0x3d620d43	0.05518843
32	0xbda14ca8	-0.07875949
33	0x3d689115	0.056778986
34	0x3d4676a6	0.048452996
35	0xbd243072	-0.040085264
36	0xbd2e54be	-0.042561285
37	0xbcd14804	-0.025547035
38	0xbd875ece	-0.066098794
39	0x3cf9635b	0.030442884
40	0xbceec6b4	-0.029147483
41	0xbca9cdbf	-0.02072799
42	0x3d9bcd0f	0.07607471
43	0x3caaa24e	0.020829346
44	0xbc8e1b42	-0.017346982
45	0x3d008c78	0.03138396
46	0x3d103b53	0.035212826
47	0x3d842f9c	0.06454393
48	0xbd386eb5	-0.045027453
49	0xbdb29734	-0.08720246
50	0xbc60d7da	-0.013723338
51	0xbdf72e02	-0.12069322
52	0x3c2494cd	0.0100452425
53	0x3d6209c8	0.05518511
54	0xbd35998a	-0.04433588
55	0x3bc66dbe	0.0060555628
56	0xbdd678eb	-0.10472282
57	0x3db76385	0.08954529
58	0x3d07b951	0.033135716
59	0x3da6afa4	0.081389695
60	0x3e316064	0.17321926
61	0x3d9b089b	0.07570001
62	0xbd83e200	-0.064395905
63	0xbca9ad62	-0.020712558
64	0x3c8601dc	0.016358308
65	0xbd915b1f	-0.07097458
66	0xbc21dcc5	-0.009879296
67	0xbd8fc0d7	-0.07019203
68	0x3d789f36	0.06069871
69	0xbc6a4e96	-0.014300963
70	0xba15cea2	-0.00057146896
71	0xbd738b58	-0.05945906
72	0xbd85f56d	-0.06540952
73	0x3e3052e2	0.17219117
74	0xbe0996c6	-0.13436422
75	0x3dac3758	0.084089935
76	0xbd062f17	-0.032759752
77	0x3daad9fa	0.08342357
78	0x3de18c9a	0.11013146
79	0x3d0dd622	0.03462804
80	0xbd46a4f8	-0.04849717
81	0xbbe6f0fa	-0.0070477696
82	0x3dab4756	0.083632156
83	0x3cdeb38c	0.027185224
84	0x3e1e63f6	0.1546782
85	0x3de343c6	0.11096911
86	0x3de265f7	0.110546045
87	0x3d87b8f9	0.066270776
88	0x3c6d5593	0.0144857345
89	0xbd02dd78	-0.03194949
90	0xbdfe2247	-0.12408882
91	0x3e1408f2	0.14456537
92	0x3d1b5a5f	0.03792798
93	0x3d876bb4	0.066123396
94	0xbd29e29c	-0.041475877
95	0xbd614557	-0.05499777
96	0x3bece76f	0.0072297375
97	0xbdb133cd	-0.08652458
98	0xbda68668	-0.08131105
99	0x3d52a8bf	0.05143046
100	0xbdbdfa7a	-0.0927629
101	0x3e39967d	0.18123813
102	0xbb80b85f	-0.0039282287
103	0xbd9945a5	-0.07483987
104	0xbcfb7972	-0.030697558
105	0x3d4fafe9	0.05070487
106	0x3e2c8cbd	0.16850562
107	0x3db68a6f	0.08913123
108	0xbc1e1d6b	-0.0096505685
109	0x3d13339d	0.035937894
110	0xbd1d3aa3	-0.038386
111	0x3d1b09f7	0.0378513
112	0x3dac663d	0.08417938
113	0x3c4172cb	0.011807154
114	0x3e0901fd	0.13379665
115	0x3dd01ef9	0.101621576
116	0xbd3008b0	-0.042977035
117	0xbd90c9a8	-0.07069713
118	0xbde518e9	-0.11186392
119	0xbd644f4c	-0.055739686
120	0xbd779964	-0.06044902
121	0xbd156b99	-0.036479566
122	0x3ccc75dd	0.024958545
123	0x3d18be44	0.037290826
124	0xbcaba5ca	-0.020953078
125	0xbd15e0d1	-0.036591355
126	0xbe082352	-0.13294724
127	0x3c7fbf3f	0.0156095615
128	0x3d4a3f5f	0.04937684
129	0xbd02c005	-0.031921405
130	0x3bfa0b12	0.007630714
131	0xbdc0962f	-0.09403645
132	0x3dc9926c	0.09842381
133	0x3dabe86e	0.08393942
134	0x3db53e39	0.08849759
135	0xbdca2722	-0.09870745
136	0x3d992eae	0.074796066
137	0x3b3cc698	0.0028804895
138	0xbd30a768	-0.0431284
139	0xbb12aa00	-0.002237916
140	0x3de4b66c	0.11167607
141	0xbd24e051	-0.040252987
142	0xbc656e5e	-0.014003364
143	0x3c04161e	0.008061914
144	0xbd4dd262	-0.050249465
145	0xbd8d0104	-0.06884959
146	0x3d9eb362	0.07749058
147	0xbe06fa92	-0.13181522
148	0x3cf21039	0.029548751
149	0xbd8cb901	-0.06871224
150	0xbd2eb1fd	-0.04265021
151	0x3d13659a	0.035985567
152	0x3d017f36	0.03161546
153	0x3c8e3306	0.017358314
154	0x3d9b4d53	0.07583108
155	0x3d34a5b3	0.044103336
156	0xbc06903a	-0.008213097
157	0x3d455ab3	0.0481822
158	0x3c03df9b	0.008048917
159	0x3d657279	0.056017373
160	0x3d36f847	0.04467037
161	0xbc957e6c	-0.01824876
162	0x3cf90a63	0.03040046
163	0x3d084f67	0.03327885
164	0xbc103b5f	-0.008803218
165	0x3c801063	0.015632814
166	0x3b875f0d	0.004131204
167	0xbcbfcb5a	-0.023412395
168	0xbdc345bc	-0.09534785
169	0xbd3f2b13	-0.04667194
170	0x3d2f0076	0.04272505
171	0xbe1fdba1	-0.15611126
172	0xbcb6b9f4	-0.022305466
173	0x3d3f67d2	0.04672987
174	0x3de867ab	0.11347898
175	0xbbb5deb4	-0.00555023
176	0x3ca3481c	0.019931845
177	0x3c812d89	0.015768783
178	0xbcca8c8e	-0.024725225
179	0x3ca193c9	0.01972379
180	0xbd83b925	-0.06431798
181	0xbe0a51a4	-0.13507706
182	0x3c6a38fe	0.014295815
183	0x3ce2ad4b	0.027670523
184	0xbddb6349	-0.107122965
185	0xbd6e0b79	-0.05811641
186	0x3e357ae7	0.17722665
187	0x3d669a68	0.056299597
188	0xbe15b2a9	-0.14618935
189	0x3d7604b1	0.060063068
190	0x3cfb51b1	0.030678602
191	0x3d33b580	0.043874264
192	0x3da3b827	0.07994109
193	0xbd5cd1aa	-0.05391089
194	0x3b00de6c	0.0019663824
195	0xbe068e08	-0.13140118
196	0xbd29c70f	-0.041449603
197	0xbb76e83b	-0.0037675041
198	0xbc6ba762	-0.014383169
199	0xbc443688	-0.011975892
200	0xbdba7733	-0.09104767
201	0x3d8d7564	0.06907156
202	0xbcbc0818	-0.022953078
203	0x3de63b68	0.112417996
204	0xbe848492	-0.25882393
205	0xbe0205c5	-0.12697513
206	0x3dd4e68c	0.10395536
207	0xbc9cfe5b	-0.019164255
208	0x3c7c2c29	0.015391388
209	0x3dbbadac	0.09163985
210	0x3dd1fac0	0.10252905
211	0x3e355080	0.1770649
212	0x3d8d9dae	0.06914841
213	0xbda06a19	-0.078327365
214	0xbd8f9b28	-0.070120156
215	0x3dae1682	0.08500387
216	0x3c37a85f	0.011209576
217	0x3e182ea9	0.1486155
218	0x3dcbff43	0.09960797
219	0xbd74abac	-0.05973403
220	0xbd34dee7	-0.04415789
221	0x3d01037e	0.03149747
222	0x3cf85c5f	0.030317483
223	0xbe1e3f1c	-0.15453762
224	0x3dd564c1	0.10419608
225	0xbdca0fb8	-0.09866279
226	0xbd79475b	-0.060859066
227	0x3d7ef478	0.062244862
228	0xbd010ea4	-0.031508103
229	0xbd2c78ff	-0.04210758
230	0xbc231f21	-0.009956152
231	0xbcd633e1	-0.026147785
232	0xbd2653ca	-0.04060725
233	0xbae3185e	-0.0017325988
234	0x3d982ca3	0.07430389
235	0x3d9c42ac	0.07629904
236	0x3d8bdcda	0.068292335
237	0xbde96360	-0.113959074
238	0xbc8590c4	-0.016304381
239	0x3d2068b2	0.039162345
240	0x3c060a92	0.008181231
241	0xbcd86737	-0.026416404
242	0xbdf415ef	-0.11918246
243	0xbdec911f	-0.11551117
244	0x3d4e175c	0.050315246
245	0xbd9614a5	-0.073281564
246	0xbe12db37	-0.14341436
247	0x3e10666a	0.14101568
248	0xbcb0077f	-0.02148795
249	0xbcda9d1c	-0.026686244
250	0xbd83cc99	-0.06435508
251	0x3d604aac	0.054758713
252	0xbd8f82e7	-0.070073895
253	0x376ecc38	1.4233454e-05
254	0x3dcd0ba0	0.10011983
255	0xbbdda675	-0.006764228

fc2.bias f4 [84]
0	0x3d25e7d5	0.040504295
1	0x3d4d7382	0.050158985
2	0x3e0be98f	0.13663314
3	0xbc2f0e2e	-0.010684533
4	0x3be84b75	0.0070890733
5	0x3d1e44ff	0.03864002
6	0xbdc53af3	-0.09630384
7	0x3d3aaa01	0.045572285
8	0xbc5011bb	-0.01269954
9	0x3dde11b2	0.10843219
10	0x3cdcaf38	0.02693902
11	0x3dd9f7bc	0.10642955
12	0xbd533ed8	-0.051573604
13	0x3d134d33	0.035962295
14	0xbd19d537	-0.037556853
15	0xbdfb9f82	-0.12286283
16	0xbdcfaacf	-0.10140001
17	0xbd37a57c	-0.044835553
18	0x3d64396a	0.055718817
19	0x3db84685	0.089978255
20	0x3d825726	0.063642785
21	0x3c7759bc	0.015097078
22	0x3c304927	0.010759628
23	0x3d583814	0.052787855
24	0xbcfc207a	-0.030777205
25	0xbc793f07	-0.015212781
26	0x3de13936	0.1099724
27	0x3ddf58a0	0.10905576
28	0x3cdd0318	0.026979014
29	0x3d39f473	0.04539914
30	0x3dbe7bc1	0.09300948
31	0xbcecdacd	-0.028912926
32	0xbd495456	-0.049152695
33	0xbd94430f	-0.07239353
34	0xbccb6d83	-0.024832493
35	0x3d7f2de9	0.062299643
36	0x3d80abfd	0.06282804
37	0x3d801c10	0.062553525
38	0xbc750d41	-0.014956773
39	0x3dc0faa6	0.094228074
40	0x3d991f97	0.074767284
41	0xbd9bd505	-0.076089896
42	0xbcec56c6	-0.02884997
43	0x3d0446b2	0.032293983
44	0x3db2390b	0.08702286
45	0x3d38bc52	0.04510147
46	0xbd0df341	-0.034655813
47	0xbcf75d63	-0.030195897
48	0x3d4eb507	0.05046561
49	0xbbcca9e1	-0.006245837
50	0xbd487ba7	-0.04894605
51	0xbd4b6b6c	-0.049662992
52	0xbc8537cc	-0.016261958
53	0xbceb982a	-0.02875908
54	0xbdb28353	-0.08716454
55	0x3db21a09	0.08696372
56	0xbcc4300e	-0.023948696
57	0x3d341e1e	0.043974034
58	0x3da74053	0.08166566
59	0x3c427976	0.011869779
60	0x3d37ca43	0.044870626
61	0x3d5c56e1	0.05379379
62	0xbd4d6e97	-0.050154295
63	0x3c8f54ea	0.017496545
64	0x3d4da981	0.05021048
65	0x3d438fd8	0.047744602
66	0x3c56c0b7	0.01310747
67	0xbce25d05	-0.027632246
68	0x3bda3374	0.0066589657
69	0xbca6aa48	-0.020344868
70	0x3dc1288e	0.09431563
71	0x3b16e005	0.002302171
72	0xbd15f8de	-0.03661429
73	0xbda0e2d3	-0.07855763
74	0xbd8bc5f8	-0.06824869
75	0x3bd71093	0.006563255
76	0x3d76bdb7	0.06023952
77	0x3c534a63	0.012896153
78	0xbd7d7740	-0.061881304
79	0x3d4e6103	0.050385486
80	0x3cad4f9d	0.021156127
81	0x3da21815	0.079147495
82	0x3daa1fd4	0.08306852
83	0xbd7a6714	-0.06113346

fc3.weight f4 [10, 84]
0	0x3ea50f91	0.3223844
1	0xbdec241a	-0.11530323
2	0xbe1f3bb3	-0.15550117
3	0x3d87ece4	0.0663698
4	0xbd19dd6c	-0.03756468
5	0x3d57c685	0.052679557
6	0x3bc304aa	0.0059514837
7	0x3d9f8634	0.07789269
8	0xbd04b204	-0.03239633
9	0xbe34e22e	-0.17664406
10	0xbe8bae5e	-0.2728147
11	0x3e310b93	0.17289571
12	0xbd97a338	-0.074041784
13	0xbb09771a	-0.002097553
14	0x3d55f18d	0.052232314
15	0xbd6eca21	-0.058298234
16	0xbe109b3d	-0.14121719
17	0xbcf01c3e	-0.029310342
18	0x3eba85c3	0.36430177
19	0xbe2b9d30	-0.16759181
20	0xbcefb128	-0.02925928
21	0x3e1cc92e	0.15311119
22	0xbe0686be	-0.13137338
23	0xbe34bcb6	-0.17650113
24	0xbe1a88ae	-0.15091202
25	0xbe36879d	-0.1782517
26	0xbe3e4399	-0.18580474
27	0x3e8c58f5	0.2741162
28	0xbd833e1c	-0.06408331
29	0xbe4dc79f	-0.2009568
30	0x3d6e31f1	0.058153097
31	0xbe3c96e6	-0.18416938
32	0xbd72329a	-0.05913029
33	0x3ca6d134	0.020363428
34	0xbcab78a0	-0.020931542
35	0xbc4f65ca	-0.012658546
36	0xbcf5425e	-0.029938873
37	0xbe3e3f6a	-0.18578878
38	0xbde14cf8	-0.11001009
39	0xbe0ec336	-0.13941655
40	0xbe874840	-0.2642231
41	0x3e7a8254	0.24463779
42	0xbd85c392	-0.06531443
43	0xbdb1d73b	-0.0868363
44	0x3d8c26a7	0.0684331
45	0x3e1d36ec	0.15352982
46	0xbd3c9e8d	-0.046049643
47	0x3cb28af7	0.02179478
48	0xbe6a767a	-0.22896758
49	0x3daba2af	0.08380639
50	0x3ddac06b	0.10681232
51	0xbde1a3dd	-0.110175826
52	0xbd1a85d7	-0.037725296
53	0x3de9e5d0	0.114207864
54	0x3d5049bc	0.05085157
55	0xbdc18971	-0.09450043
56	0xbd9aac06	-0.07552342
57	0x3eab90bd	0.33508864
58	0x3e5d9a94	0.21640998
59	0x3c7ffdff	0.015624522
60	0xbdd1fd56	-0.10253398
61	0x3d90b7cb	0.07066306
62	0xbd9b0dcf	-0.07570993
63	0xbd1e068d	-0.038580466
64	0xbdedbfaf	-0.11608826
65	0xbd87b669	-0.06626589
66	0xbdf89ca9	-0.121392556
67	0xba87394e	-0.0010316761
68	0xbe22134f	-0.15827678
69	0x3e169c76	0.14708123
70	0xbd146df5	-0.036237676
71	0xbd80cb7a	-0.0628881
72	0x3e61cb87	0.22050296
73	0xbd2cc2e3	-0.042178046
74	0xbc9b33b9	-0.018945562
75	0x3d961310	0.07327855
76	0x3d94fd05	0.07274822
77	0xbe204588	-0.15651524
78	0xbcab69d0	-0.020924479
79	0xbdae16eb	-0.08500465
80	0xbe60a9ac	-0.21939725
81	0xbe407694	-0.18795234
82	0x3d1c8409	0.038211856
83	0xbd5233b6	-0.051318847
84	0xbe3f05ee	-0.18654606
85	0xbe329da3	-0.17442946
86	0x3e931d8a	0.28733474
87	0xbd48dd97	-0.04903945
88	0xbc89cb50	-0.01682058
89	0xbcfeef7c	-0.031120054
90	0x3d74323b	0.059618216
91	0x3bd92656	0.0066268845
92	0xbdd3c902	-0.103410736
93	0x3e61fa38	0.22068107
94	0xbe21ed0a	-0.1581308
95	0xbd907913	-0.07054343
96	0x3bc94200	0.006141901
97	0xbdcc3329	-0.099706955
98	0xbd386a2c	-0.04502313
99	0x3d76385f	0.060112353
100	0x3bd1b392	0.0063995803
101	0xbd410ec0	-0.047133207
102	0xbdc176ab	-0.09446462
103	0x3d4122f8	0.04715249
104	0xbdef3648	-0.11680275
105	0xbc10f840	-0.00884825
106	0x3deb1d53	0.114802025
107	0x3edea810	0.43487597
108	0x3e931845	0.28729454
109	0xbe0e1906	-0.13876733
110	0x3e1ea12c	0.1549117
111	0x3dfdfe16	0.12401979
112	0x3b3e0bcd	0.0028998733
113	0x3e31eb09	0.17374815
114	0x3cf8a723	0.030353134
115	0x3cc90310	0.024537593
116	0xbd9f5739	-0.07780308
117	0xbd43a859	-0.04776797
118	0x3d87e55a	0.06635542
119	0xbc27b024	-0.010234866
120	0xbccbe23f	-0.024888156
121	0xbe05e88d	-0.13076992
122	0xbd8947a3	-0.06703117
123	0xbd4eea96	-0.050516687
124	0xbe14aeb8	-0.14519775
125	0xbdad0bf7	-0.08449548
126	0x3e8856e8	0.26628804
127	0xbe437832	-0.1908882
128	0xbe0fd636	-0.14046559
129	0x3d9f535a	0.0777957
130	0xbeb82c5a	-0.35971338
131	0xbcfc4bf9	-0.030797945
132	0x3dce3488	0.10068613
133	0xbe590313	-0.21192579
134	0xbe22575f	-0.15853642
135	0x3da1bad9	0.078969665
136	0x3dcc9777	0.09989827
137	0xbe3489c7	-0.17630683
138	0xbe2b3f26	-0.16723308
139	0xbd014335	-0.031558234
140	0x3bbcc6cc	0.005761003
141	0xbe3aeff1	-0.18255593
142	0x3ed5015c	0.416026
143	0x3d210654	0.039312676
144	0x3bcf6d25	0.0063301497
145	0x3de5a430	0.11212957
146	0x3dd80a2d	0.10548816
147	0x3cc8f38d	0.024530197
148	0x3df6914a	0.120394304
149	0xbdd3597f	-0.103198044
150	0xbdc14d38	-0.094385564
151	0xbde132b3	-0.10995998
152	0xbdc10d05	-0.094263114
153	0xbd387e6e	-0.045042448
154	0x3e8f2bf4	0.2796322
155	0x3c801248	0.015633717
156	0xbd75d668	-0.060018927
157	0xbcfe4666	-0.031039428
158	0xbe563116	-0.20917162
159	0xbe354cb5	-0.17705043
160	0xbd5bdd7d	-0.053678025
161	0xbc147492	-0.009060996
162	0xbe33073f	-0.17483233
163	0x3e0fbe08	0.14037335
164	0x3e8cbe21	0.27488807
165	0xbe32269b	-0.1739754
166	0xbe0ec4ed	-0.13942309
167	0xbdb44861	-0.08802868
168	0x3e83d82a	0.25750858
169	0xbc792b62	-0.015208097
170	0xbe3d4964	-0.18485028
171	0xbb52a31a	-0.0032140673
172	0xbddfe2b3	-0.10931911
173	0xbdeac8f2	-0.114641085
174	0xbd9eb1e2	-0.07748772
175	0x3d5080dd	0.050904144
176	0xbdbdee3f	-0.092739575
177	0xbd77abe2	-0.060466655
178	0x3bbc7501	0.0057512526
179	0x3ec89dd4	0.39182913
180	0xbc4cec20	-0.012507468
181	0xbe204fa5	-0.15655382
182	0x3c133395	0.008984466
183	0xbd71d969	-0.05904523
184	0xbe260f62	-0.16216806
185	0x3d92f478	0.07175535
186	0xbe51cbe8	-0.2048794
187	0xbe170da5	-0.14751299
188	0x3da6123c	0.08108947
189	0xbc823f21	-0.015899243
190	0x3e0fafdb	0.14031927
191	0xbcc5fb74	-0.024167754
192	0xbe33937e	-0.17536733
193	0x3d9ba68a	0.07600124
194	0xbe7d989e	-0.2476525
195	0xbe9875f7	-0.297775
196	0x3cbcb319	0.02303462
197	0xbe84ef17	-0.2596366
198	0x3e1f1a08	0.15537274
199	0xbde45000	-0.11148071
200	0x3daf9194	0.08572689
201	0xbcf540bb	-0.029938092
202	0x3d7ec878	0.0622029
203	0xbd8f9808	-0.070114195
204	0x3d1acbb6	0.03779193
205	0x3dac61c8	0.08417088
206	0x3e1f2e09	0.15544905
207	0xbebff901	-0.37494662
208	0xbe48ad1b	-0.19597284
209	0xbde5f1a3	-0.11227729
210	0xbdf591b9	-0.11990685
211	0x3de83fdf	0.113403074
212	0xbe0be117	-0.13660084
213	0x3db6ebf3	0.089317225
214	0x3e036c35	0.12834246
215	0x3d8c10de	0.06839155
216	0xbdb2093f	-0.0869317
217	0x3df83c36	0.12120859
218	0x3cedd479	0.029031979
219	0x3d5a79a2	0.053338654
220	0x3d622167	0.055207636
221	0xbe1a5847	-0.15072738
222	0x3ca3fef2	0.020019028
223	0xbccfc5c8	-0.025362864
224	0xbd1aff36	-0.037841044
225	0xbe178705	-0.147976
226	0x3e33b010	0.17547631
227	0x3df057cf	0.11735498
228	0x3e951b5b	0.29122433
229	0xbc8109db	-0.01575177
230	0xbdf0dd6f	-0.11760985
231	0x3e144b4e	0.14481851
232	0x3e4be2e9	0.19910778
233	0xbe2061a7	-0.15662251
234	0x3ebe2c26	0.37143058
235	0x3d1bea02	0.038064964
236	0x3b93ab6e	0.00450652
237	0x3da76b9e	0.08174823
238	0x3e54c29b	0.20777361
239	0xbccd541b	-0.025064519
240	0x3cd14a91	0.025548251
241	0xbd038a98	-0.032114595
242	0xbdd0e9e5	-0.10200862
243	0x3e0bd937	0.1365708
244	0xbdbe3b1a	-0.092886165
245	0x3dfe37fa	0.124130204
246	0x3ca47f59	0.020080255
247	0xbd908d31	-0.0705818
248	0x3e6f8ecd	0.23394318
249	0x3e8ac801	0.27105716
250	0xbbc379f8	-0.0059654675
251	0xbd970d89	-0.073756285
252	0xbe4a428e	-0.19751951
253	0x3dcae612	0.09907164
254	0xbe0ca95c	-0.1373648
255	0xbd86dc33	-0.065849684

fc3.bias f4 [10]
0	0xbdb5125e	-0.08841394
1	0x3e39563b	0.180993
2	0x3b51feff	0.0032042859
3	0x3c8a26ea	0.016864259
4	0xbd75d0f8	-0.06001374
5	0x3c666c11	0.014063851
6	0xbd036227	-0.032076027
7	0xbdadd95d	-0.084887244
8	0x3da64a59	0.081196494
9	0xbd21d763	-0.03951205
